…
ab":{"base_uri":"https://localhost:8080/"},"executionInfo":{"elapsed":762,"status":"ok","timestamp":1660762517373,"user":{"displayName":"Prashant Kumar","userId":"15572161970058001404"},"user_tz":-330},"id":"cnhriWoRjDNe","outputId":"4f392a0b-5976-42fe-8748-97c330e8c9e8"},"outputs":[{"output_type":"stream","name":"stdout","text":["Model: \"sequential_2\"\n","_________________________________________________________________\n"," Layer (type)                Output Shape              Param #   \n","=================================================================\n"," sequential (Sequential)     (32, 511, 511, 3)         0         \n","                                                                 \n"," conv2d (Conv2D)             (32, 509, 509, 32)        896       \n","                                                                 \n"," max_pooling2d (MaxPooling2D  (32, 254, 254, 32)       0         \n"," )                                                               \n","                                                                 \n"," conv2d_1 (Conv2D)           (32, 252, 252, 64)        18496     \n","                                                                 \n"," max_pooling2d_1 (MaxPooling  (32, 126, 126, 64)       0         \n"," 2D)                                                             \n","                                                                 \n"," conv2d_2 (Conv2D)           (32, 124, 124, 64)        36928     \n","                                                                 \n"," max_pooling2d_2 (MaxPooling  (32, 62, 62, 64)         0         \n"," 2D)                                                             \n","                                                                 \n"," conv2d_3 (Conv2D)           (32, 60, 60, 64)          36928     \n","                                                                 \n"," max_pooling2d_3 (MaxPooling  (32, 30, 30, 64)         0         \n"," 2D)                                                             \n","                                                                 \n"," conv2d_4 (Conv2D)           (32, 28, 28, 64)          36928     \n","                                                                 \n"," max_pooling2d_4 (MaxPooling  (32, 14, 14, 64)         0         \n"," 2D)                                                             \n","                                                                 \n"," conv2d_5 (Conv2D)           (32, 12, 12, 64)          36928     \n","                                                                 \n"," max_pooling2d_5 (MaxPooling  (32, 6, 6, 64)           0         \n"," 2D)                                                             \n","                                                                 \n"," flatten (Flatten)           (32, 2304)                0         \n","                                                                 \n"," dense (Dense)               (32, 64)                  147520    \n","                                                                 \n"," dense_1 (Dense)             (32, 5)                   325       \n","                                                                 \n","=================================================================\n","Total params: 314,949\n","Trainable params: 314,949\n","Non-trainable params: 0\n","_________________________________________________________________\n"]}],"source":["model.summary()"]},{"cell_type":"code","execution_count":15,"metadata":{"id":"2em
…
